_deprecated_script/models/saved_weights/lstm/Alhagry_variant/s1/c1.pth (torch_old, 152308 bytes, 10 tensors)

lstm1.weight_ih_l0 f4 [256, 32]
00000000: a4c6 cebd 88c4 ffbd 0542 803c 1dac 3f3d
00000010: 701b 743b ab3d 0f3d dbd4 8f3d 0bb0 88bc
00000020: ba5d f7bd 4adc f53d 9487 bbbd a054 7f3c
00000030: 13ec d6bd ba2a f3bd c9c0 963d df4b f63c
00000040: 6127 04be 4710 89bd 2fbb dcbd ccef 19bd
00000050: 109a dd3d f25b 463d 97e8 863d b38b a6ba
00000060: de2e 12bd 27e4 4fbd 10a7 14bd 0312 343d
00000070: b35a 413d e833 d23c 7089 b8bd 0955 993c
00000080: 648c 70bd 8c7b 8d3d 94df 21bb afde 5bbd
00000090: fdb5 03bd 3ca2 b5bd 9003 463d 0c2b 6f3b
000000a0: 9ba1 913d a5e7 8abd 3847 983d 0615 c43d
000000b0: 4538 a73d e073 a2bd f18d 6bbd c36e a4bb
000000c0: ab98 69bb f9a0 9bbd f13f 50bd 52e5 4dbd
000000d0: e63a 8fbd 341d 463d 47d8 493c 86ce b23d
000000e0: 40ac b73d 62f9 0fbd e1c1 8bbd e0fb 87bd
000000f0: 3d2d cd3d ea34 803d bc8d 04be 4aa1 3e3d
00000100: 8b6b 16bc c06b d13c 7a83 ddbd e534 98bd
00000110: 56ad 41bd 101d f2bd 2355 13bd e9f5 e5bd
00000120: 5945 d9bd e814 a33d 87dd d0bd 4955 cd3d
00000130: 2c54 8dbd 0aca bc3d 3f44 7cbd 8928 4fbc
00000140: 831b 8a3d 4f42 b23d 6d10 63bd 0180 d5bd
00000150: 44f2 c83d bbf7 a3bd f5a5 b4bd 272e c73c
00000160: 590f e9bd 94da 683b 9133 fdbd 7b27 efbd
00000170: 7821 d43d 1105 61bc 893f d33d 25f9 98bc
00000180: 6a9d ccbd 6373 b83b f9ab f63d d7c1 5f3d
00000190: a898 a83d 504a b7bd 11c4 013e 96cf c9bc
000001a0: 9664 8d3b 39fc 3abd ae2a a3bb 07a3 81bb
000001b0: 0c55 bf3d 9aeb 313c a288 b53d 4d6e dfbd
000001c0: 3769 663d 949f 933c 8aab 3c3c 6ac8 803d
000001d0: ed63 7d3c fd9a 82bc af05 6f3d f40c 19bc
000001e0: 90d6 74bc a46d e73d c928 c6bd 04b5 003b
000001f0: 9894 b03d 37ce 443d 1a73 18bd e446 d0bd
00000200: 3637 693d 80c0 d83c 33e0 67bd e8a2 953d
00000210: a5c8 173d 4e5c 73bb 254f 5e3d 4615 dc3c
00000220: e3d4 ed3c d16d 14be 2bc3 89bd c699 fa3c
00000230: 947e 7f3c f650 c13d ef71 01bd 54f6 d1bc
00000240: cd51 a23d 5808 f33d 30fc d2bc e4d8 ca3d
00000250: a2b4 6fbd 39d5 9bbc b3bf 2dbc 0d89 083d
00000260: f3d0 ef3d 7a92 c13d 8b21 d63d 7a43 193d
00000270: efd1 bebd c247 97bd a1f1 20bd f931 f1bc
00000280: d65b e2bc 2c1b ea3d 8e74 183e 2d36 d03c
00000290: d7ce aa3b 242d 3a3d 713f 9ebd d27b f0bd
000002a0: 607e d13d 5e9d 58bc 1907 d03d 6bd9 813d
000002b0: 970a 4ebd f47c d2bd 7caa 8f3d 5a61 9e3d
000002c0: 79d7 933b cca9 673d 1bfe 923d 0fc0 fa3c
000002d0: b5bc f63d 0e0c 443d 21dc b03d 9aac e7bc
000002e0: ac6c 1cbd aba1 12be c065 96bd 5209 e5bd
000002f0: 5b2a c93d c2d4 bfbd 85a0 333a e86a d2bd
00000300: fc6b e03d 6c3e 3dbd 0e2c c73d df93 5d3d
00000310: 8791 5fbd 7f23 c13d ca47 a73b f640 afbc
00000320: df0e aebc 81c3 a1bd b558 553d 716c c6bd
00000330: 17ab b0bd 9048 fd3b 1bb7 efbd dd7c fcbd
00000340: f565 d43c f71f a13b ed52 dabd fb81 e7bd
00000350: aa9f 773d 3635 ad3c e4ec fdbd f511 023e
00000360: e138 173d 0689 463c fe7c 87bd 098c 6f3d
00000370: cad0 bd3d ac76 ed3d 1094 88bd 7dbe e1bd
00000380: 2fff fe3d c9d6 a8bd d171 0f3d d3dc c93d
00000390: 0a33 1f3c 5319 7d3b 908e 063e 5c50 b03d
000003a0: e526 6dbd dbc7 bfbd f166 31bc 9808 bf3c
000003b0: 3a3c 3f3c e3dd 913d f954 ccbd 05fe ccbd
000003c0: 86c2 2cbd 97e1 f53d afc9 eb3d ed60 9ebd
000003d0: dc80 043e c15e 9fbd 8b68 efbd 6031 443d
000003e0: 0c63 f93b 2806 10bd e8e8 073d 1880 59bd
000003f0: 0ea3 51bd 0b6d acbd 7d43 3bbd a3f3 f2bc
-0.100964814 -0.12488657 0.01565648 0.046795 0.00372478 0.03497092 0.07023021 -0.016685506
-0.12078424 0.120049074 -0.09156719 0.015584141 -0.10494246 -0.11873384 0.073609896 0.030065475
-0.12905647 -0.06692558 -0.1077789 -0.037582204 0.10820401 0.04842753 0.06587332 -0.0012706429
-0.035689227 -0.050754692 -0.036292136 0.04396249 0.04720564 0.025659516 -0.09010589 0.018717306
-0.058727637 0.0690833 -0.0024699913 -0.053679164 -0.03215598 -0.088688344 0.04834324 0.0036494164
0.07110902 -0.06782464 0.07435459 0.095743224 0.081650294 -0.07932258 -0.057508413 -0.0050180866
-0.0035643976 -0.075990625 -0.05084223 -0.050267525 -0.06993656 0.048367694 0.012319631 0.087307975
0.08968401 -0.03514994 -0.06824089 -0.06639838 0.10018394 0.062600926 -0.12944692 0.046540536
-0.009180914 0.025564075 -0.10816093 -0.07431964 -0.047284447 -0.118219495 -0.035969865 -0.11228544
-0.1060893 0.07962972 -0.10198503 0.100260325 -0.0690082 0.092182234 -0.061588522 -0.012643942
0.06743529 0.087040536 -0.055435587 -0.104248054 0.098118335 -0.08006235 -0.08820716 0.024314
-0.113798805 0.0035530673 -0.12363351 -0.11677452 0.10357946 -0.013734118 0.10314853 -0.018673489
-0.09990962 0.0056289895 0.1204452 0.05462822 0.08232242 -0.08949721 0.1267245 -0.024635118
0.0043149693 -0.045650695 -0.004979453 -0.003956202 0.09342393 0.010859394 0.08863951 -0.1090971
0.056252684 0.018020429 0.0115155075 0.06288226 0.015465719 -0.015943045 0.05835503 -0.009341467
-0.014943734 0.11300209 -0.09675748 0.0019639144 0.08622092 0.048048224 -0.037219144 -0.10169771
0.05693742 0.026458979 -0.056610297 0.073064625 0.037056584 -0.0037133875 0.054274697 0.026865613
0.029032176 -0.14495017 -0.067266785 0.030590903 0.015594143 0.0943927 -0.031602796 -0.025630154
0.079257585 0.11866826 -0.025755018 0.0990465 -0.058521874 -0.01902257 -0.010604787 0.033333827
0.11709776 0.09451766 0.104556166 0.037417866 -0.093173854 -0.073867336 -0.039292935 -0.029442774
-0.027631681 0.11430964 0.14888212 0.025416458 0.0052126455 0.045453206 -0.07726944 -0.11742367
0.10229182 -0.013221113 0.10157604 0.06340297 -0.050303068 -0.10277739 0.07014939 0.07733412
0.0045117703 0.056558415 0.07177373 0.030609159 0.12047712 0.04786306 0.08635736 -0.028280545
-0.038189575 -0.14319484 -0.07343626 -0.11183418 0.09822532 -0.09366752 0.00068522274 -0.10274297
0.109580964 -0.04620211 0.097252 0.0540961 -0.054582145 0.094305985 0.0051049935 -0.02139328
-0.021247325 -0.078986175 0.05208655 -0.09688652 -0.08626383 0.0077295974 -0.117048465 -0.12328503
0.025927523 0.0049171406 -0.10660348 -0.11304089 0.060455002 0.021143537 -0.12398699 0.12702163
0.03691948 0.01211763 -0.06615637 0.058483157 0.09268339 0.115949005 -0.06668866 -0.11022661
0.12451016 -0.08244092 0.035020653 0.09856572 0.0097167585 0.003861983 0.13140321 0.08609077
-0.05789842 -0.09364291 -0.010827766 0.023319528 0.011672074 0.071224 -0.09977145 -0.10009388
-0.0421777 0.120059185 0.115130775 -0.07733331 0.12939781 -0.07781745 -0.11689862 0.04789865
0.0076106843 -0.03516212 0.0331811 -0.053100675 -0.05118089 -0.08419236 -0.04571866 -0.02965719

lstm1.weight_hh_l0 f4 [256, 64]
00000000: c10b 123d b354 07be 06ad b0bd 5f15 e03d
00000010: dc77 473c d712 cc3c 2e0b 50bc 0af8 4e3d
00000020: ac23 1ebd 93ab 743c fa03 16bd c27a 1bbd
00000030: 6bee 0fbc 370d b1bd 9f98 c03d 7736 a0bd
00000040: d45b 2c3e fc68 3dbc 4b8b a73d e143 43ba
00000050: ea9e b7bd 0b7e 013e b568 91bd 7c65 3abd
00000060: 3627 adbd 2876 4ebd 2a29 953d 7bf8 94bd
00000070: 5cca e6bd 812e 2fbd 3915 f93d 072c b4bd
00000080: 79a2 79bd 40fe ccbd 4c81 af3d 2c2e 5a3d
00000090: d7d4 66bd f6e5 b43d 90e1 c73c d946 c93d
000000a0: 5255 88bd f027 253d ae3a d83c d3e1 d73d
000000b0: fa53 81bd 4aec b73d 19c4 c33d d44e 2bbd
000000c0: 358b a43c ea7a 5b3d 8854 103d 633c cdbb
000000d0: e62c e7bc 3d52 933d f817 b1bd e223 c8bd
000000e0: dc07 c0bd ce13 0b3c 7252 37bd e9d9 5f3d
000000f0: 5c65 b4bd 4e18 483c a376 223b 6b58 013e
00000100: 7a1c aabd 5eda f0bc 9adb 4b3d d3e4 533d
00000110: 6ffa 9b3c 817c d73d 8ea6 e4bb 255d f3bd
00000120: 4dd0 9ebd 6e51 ddbd f68e d2bd c1aa 9fbd
00000130: 95d7 0d3a bf2f 1fbd 5e32 0ebe 8541 5c3d
00000140: 2c03 be3d 175f 083d 9fd2 19bd 40d6 11bc
00000150: 4f54 d6bd 1cc4 983d fd5b debc a93a 943d
00000160: 648d 5abd 66d0 7ebd cd03 7e3d e4b2 35bd
00000170: 1e85 d53d 9ff2 28bd 2d88 61bd 856e 2e3d
00000180: 1810 603c 079e d23d aa8d eb3c 20df 43bd
00000190: ebc1 303d 8625 223d e106 3c3c 2c98 75bd
000001a0: ca27 e83c 629d 75bd c753 87bd a725 8abd
000001b0: c231 063c 6136 c3bd f26a e4bd 3bc3 b53d
000001c0: f72c b93d e64b 903d e424 b3bd beaa 52bd
000001d0: 9699 533c aada 13bd 84fe ac3c 0cf3 b03d
000001e0: a8ef e73c 131a cc3d 9ac1 af3d ccab 6bbd
000001f0: 09a1 9b3d 957f 4abd 79a0 76bd 1964 e23c
00000200: f659 69bd fe72 e03d df92 313e c58a 1cbe
00000210: c266 0c3e da81 a03d 9ec7 c1bd c93d 8dbd
00000220: 0586 9ebd 9230 343d c726 8abd 965c a3b9
00000230: 03d0 583c 7df3 41bb 1974 79bd 4e79 683d
00000240: be51 1ebe 546b 113e 04f9 c6bd 30be 173d
00000250: 3846 26be bd80 f03d 6a9c 57bd 92cb bf3d
00000260: f1f4 43bd e438 5b3d 9a76 d8bd bd53 3cbd
00000270: a84c 9b3c 90bf 943d 370f 893d 8260 503c
00000280: 940a ef3d f1c7 95bd e8ab c63d d398 cf3c
00000290: 76a6 083e a367 203e aea5 57bd 3c44 233d
000002a0: 89f4 ff3c 981a 2e3d 8d2d 1abc 3acb 9a3d
000002b0: ba05 b23c 7ece b73d 8290 653d 37eb 85bd
000002c0: ab23 c63d 3f9a 803b 7da1 383d dfd7 d13c
000002d0: ac90 323d d5f6 8d3d bc80 d53d 1bff 003e
000002e0: 2c0c ecbb fedb 2cbd 9ea5 2abc 45e3 193e
000002f0: edd4 2c3d 7e7f 0d3c 615d 38be 249b 923d
00000300: 4d35 5bbc 946e 223e a399 e1bd bd5c c43d
00000310: f91b 133e cfe2 3ebd ef9f 363d 4b23 20bd
00000320: 647b adbd 7ff7 4abd e910 7f3d 50c9 77bd
00000330: 7829 133d 7ce3 883d 6215 8cbd 53b1 15bd
00000340: 85bc a83d 370a 213e a1ee 0bbc 66a4 033e
00000350: 276d b73d f288 e83c 6bc8 92bb b38b cd3d
00000360: cd8c abbd 71eb 653d 2df0 80bd cfdb 623d
00000370: 84b7 d73d 4b8d d9bd 1698 6d3d 60db 053b
00000380: c0a3 1bbd 8156 653c 4621 b03d a176 fb3c
00000390: b8f2 5e3d c4b0 a83d e2c6 fbbd ddda 143d
000003a0: 79c7 95bd 9721 dfbd a04a a43c 9eda 2e3c
000003b0: 9c56 7bbd 1506 b4bc 8912 c3bd c09c aa3d
000003c0: c578 60bd a6d0 b0bd 0971 a23d 7bec 263d
000003d0: 58b9 03bc 7586 2bbd cc0e d83d bfc8 fb3d
000003e0: e29d d8bd 7b88 9e3c c673 3cbd c83b 203e
000003f0: 1cd2 bb3d ef44 e4bc ac50 ba3b eb09 1a3e
0.03565574 -0.13215904 -0.086267516 0.10941576 0.012174573 0.024911327 -0.012697978 0.050529517
-0.038608238 0.014933485 -0.036624886 -0.037958868 -0.008784871 -0.08645099 0.0940411 -0.07822888
0.16831905 -0.011560675 0.08180865 -0.00074487744 -0.08965857 0.12645738 -0.071000494 -0.04550694
-0.084547445 -0.05040565 0.07283242 -0.072739564 -0.11269066 -0.04276896 0.12162251 -0.0879746
-0.06094596 -0.10009432 0.08569583 0.05326669 -0.056355324 0.08832924 0.024399549 0.09827966
-0.066568986 0.04032129 0.026395168 0.105411194 -0.063148454 0.089806154 0.09558887 -0.041823223
0.02008591 0.053584017 0.035236865 -0.006263302 -0.028219651 0.0719342 -0.0864715 -0.09772469
-0.09376499 0.0084886085 -0.04475636 0.054651175 -0.08808395 0.012212826 0.0024789951 0.12631385
-0.08306213 -0.029401 0.049769975 0.051731896 0.019040314 0.10521794 -0.0069778627 -0.11883
-0.07754574 -0.10806547 -0.10281174 -0.077962406 0.00054108474 -0.038863894 -0.13886401 0.05377342
0.09277949 0.03329381 -0.03755438 -0.008901179 -0.10465299 0.0745928 -0.027143473 0.07237751
-0.053357497 -0.062210463 0.062015343 -0.044360057 0.10425781 -0.041247007 -0.055061508 0.04258587
0.013675712 0.102840476 0.028754074 -0.04782021 0.043153685 0.039586566 0.011476249 -0.059959576
0.028339285 -0.059964545 -0.06607776 -0.06745463 0.008190574 -0.09531856 -0.11153211 0.08875128
0.090417795 0.070457265 -0.08747271 -0.051432364 0.012915036 -0.036097206 0.021117456 0.086401075
0.02831252 0.09965911 0.085818484 -0.057536885 0.075990744 -0.049438078 -0.060211632 0.02763562
-0.05697056 0.10959433 0.17341183 -0.15287311 0.13711074 0.07837267 -0.09461902 -0.0689655
-0.07740406 0.043991633 -0.067456774 -0.00031158765 0.013233188 -0.0029594593 -0.060901735 0.05675631
-0.1546087 0.14201099 -0.09715465 0.03704661 -0.16237724 0.11743305 -0.052639402 0.09365
-0.047841016 0.053521052 -0.105694965 -0.045978297 0.018957451 0.072631 0.06692355 0.012718322
0.116719395 -0.073135264 0.09700757 0.025341427 0.1334475 0.15664534 -0.05264824 0.039859995
0.031244533 0.04250583 -0.009410274 0.07558294 0.021731246 0.08974932 0.056046017 -0.06539004
0.09674772 0.0039246376 0.045075882 0.02561563 0.043595 0.06931845 0.10424945 0.12597315
-0.0072035994 -0.04220199 -0.010415463 0.15028103 0.04219525 0.008636354 -0.18004371 0.07158497
-0.013379407 0.15862495 -0.11015632 0.09588001 0.1436614 -0.04660302 0.04458612 -0.039096158
-0.084708005 -0.049552437 0.062271986 -0.06049472 0.03592822 0.06684014 -0.06840016 -0.036546063
0.08239082 0.15726553 -0.00854078 0.12855682 0.08956366 0.028385613 -0.004479458 0.10036411
-0.08376465 0.056132738 -0.0629581 0.055385407 0.1053305 -0.106226526 0.05800637 0.0020424947
-0.03799796 0.013997675 0.086000964 0.030696215 0.054430693 0.0823684 -0.12293793 0.036341537
-0.07313437 -0.10895079 0.020055115 0.01067224 -0.061361894 -0.021975556 -0.0952502 0.08330679
-0.054802675 -0.086335465 0.07931716 0.04075287 -0.008039795 -0.041876275 0.10549697 0.12294149
-0.10576989 0.019352188 -0.046008848 0.15647805 0.091709346 -0.027864901 0.0056858864 0.15042846

lstm1.bias_ih_l0 f4 [256]
00000000: 6ac7 d93d cabd 44bd bffc 013e 9bd1 1dbd
00000010: 19ea 91bc c151 cd3d 6118 1a3d 1c02 a2bd
00000020: 3be9 dfbd 4b20 c8bd bab9 1c3e b13e 903d
00000030: 36b3 1fbd 7d39 e23c e9dd 223e cae2 6b3d
00000040: 5133 813d 87a9 0cbd 02e9 ef3d 063e 97bd
00000050: 3ac4 a43d 04c5 a1bd 83bc b23c da3d 2c3d
00000060: e91a 8cbd 3c33 cbbd 276e 113d da06 f9bc
00000070: ccab 893b 8948 41bd b665 043d a8c0 343d
00000080: 2e82 943d 324c dabd 447c cdbd 0778 8fbb
00000090: 5605 b9bd 09d9 8c3d a41c 263d 6db7 f93d
000000a0: dd59 de3b 6a16 8cba 5aa8 a83d acd2 01bd
000000b0: de58 0fbd 119f 193e ef22 43bd 096f 533d
000000c0: 711f 17bd 06fb 0a3e 4a8c ee3d 5ec8 32bd
000000d0: 4e44 273e e35a c8bd bff3 de3d e835 d83d
000000e0: 54fa 163d 7a11 55bd ba77 273c f3cd 893a
000000f0: d05d 8a3d 398d 40bd 37c8 c53c d83f c6bd
00000100: 2cfe e93c 571a 8abd 4a68 133e 8c4b 38bd
00000110: c10a babd ba11 c73c 893c cd3d 1547 78bd
00000120: 1dd3 1c3c de70 71bd a210 b13d d7a1 8f3d
00000130: 7baa c53d b628 d83d 07e7 bd3d dfeb b3bd
00000140: b7d1 3dbc 0dd5 24bd 7834 193d 0618 153c
00000150: d62f b2bc 576c 70bd 4e55 6539 39a0 97bd
00000160: 776f d03d b3fb de3d 7220 cf3d 9c50 033e
00000170: 0b19 b13d f2d5 fe3d ee86 6bba daed 1ebc
00000180: d8cd fb3d 41dc b03d 6801 83bd 5143 833d
00000190: 5785 51bc 10f2 c23d 0c93 073e 8e4f 8e3d
000001a0: b93e 14bc 95f8 dd3d fbe1 2d3e 9557 d7bd
000001b0: 4908 b8bd faec 7abd 0e45 fc3d 928d 97bc
000001c0: df3f 54bd c642 c93c da07 63bc e369 a2bc
000001d0: 20a2 0d3e 495b 403d 1216 d63d 9a07 0ebd
000001e0: e5ba 133d a728 ddbc d811 debd 71a6 d43d
000001f0: 956b acbd 575e d8bc 47e3 60bd 07c0 003d
00000200: b685 dbbd 5ae8 f03c 4102 a1bd 3ac3 a73d
00000210: f93f 55bd 801d bd3d 410b 3e3c e7f6 f8bd
00000220: 465e 07bc 42bf 0bbe 970b c9bd bdb3 a73d
00000230: 23f7 73bd 08e3 363d 4960 a03d 750f 8a3d
00000240: dc5c 9a3c 8ea9 cf3d 9c15 863d e37d 9d3d
00000250: 306f 6bbd a973 40bb 8b9b 09be 6531 e0bd
00000260: fb7d 2f3d 531c eb3d e658 afbb 4fda c2bd
00000270: 9132 093e acbc d4bd c42a 20be d245 af3d
00000280: 0084 683b cdee b7bc 794b 203d fd47 4cbd
00000290: 495e 8d3b 6346 fa3d 9fdc 933d dd69 0d3e
000002a0: e892 e0bb 6408 283d 1887 0fbe 710d ffbd
000002b0: 9c2b 68bc ca26 36bd 9fc9 643d c289 71bd
000002c0: e32f a0bd c3be 1dbc 2d2b ecbd 555e 213d
000002d0: 5891 303d fa3d 78bc 4d0a 0b3e cf73 3b3c
000002e0: 5da4 6abc c223 dd3c 0311 38bc 88c7 a5bd
000002f0: f3fc e53d ce69 99bd 7ef8 263d 59c1 3c3d
00000300: 9ddf 4fbd 8fab f6bc 0d12 7dbd 60d0 78bd
00000310: 0559 5ebd f3af d23c 19cb 79bd fc8c de3d
00000320: d211 253e 33a1 fa3d ebc6 d8bd 081f 163e
00000330: 3f3b 8c3c e5c3 1b3e d7c9 003d f458 a13b
00000340: 8b4f 3d3b ab55 b73c e061 393e 3fa0 c43c
00000350: 8286 27bd 2db6 dc3d 116b 1c3d 347b 173d
00000360: e286 4cbc 8e0b 0e3e 42d2 f83d fedc 01bc
00000370: 781b 75bc 8899 93bc 342f bc3d 97fe 023e
00000380: 5d56 f33c 5378 8e3d 4d4a 1fbd 62fe a7bd
00000390: 8351 813d 5ef8 11bd 1932 95bd 4254 71bd
000003a0: 797e e93a eeb2 283b 080c 543d b27c 17bd
000003b0: f1a0 8e3d b7a1 a93d c6dd c33c 6772 cb3c
000003c0: 5f01 033d a62a 8b3d 7a4b 89ba a3af 173e
000003d0: 3fcf 8c3d 6df4 b2bc 5657 843d f943 c9bc
000003e0: c8e9 ba3d f441 b63d 690f 063e 8bf2 fd3d
000003f0: 68c0 bbbd 5d49 0d3e 7a62 c5bc 785c 503c
0.10633738 -0.04803256 0.12694071 -0.038529973 -0.017811822 0.10025359 0.037620906 -0.079105586
-0.10933157 -0.097717844 0.15305224 0.070432074 -0.03898927 0.027615303 0.15904965 0.05758933
0.06308616 -0.03434136 0.117143646 -0.07384877 0.0804524 -0.07898906 0.021818405 0.042051174
-0.0684107 -0.099218816 0.03550544 -0.030398775 0.004201388 -0.047188316 0.03232356 0.044129044
0.07251392 -0.10659064 -0.100334674 -0.004378322 -0.09034221 0.06877334 0.040554658 0.12193189
0.006785615 -0.0010687832 0.082352355 -0.031695053 -0.03499686 0.15002085 -0.047640737 0.051619563
-0.03689522 0.1357232 0.11647852 -0.043648116 0.1633465 -0.0978296 0.10886335 0.10557157
0.036859825 -0.05201862 0.010221416 0.0010513648 0.067561746 -0.04700968 0.024143321 -0.09680146
0.028563581 -0.06743305 0.14395252 -0.044993922 -0.090840824 0.024300445 0.10021312 -0.060614664
0.009571818 -0.05894553 0.086457506 0.070132904 0.09651657 0.1055464 0.092725806 -0.08785223
-0.011585644 -0.040242244 0.037403554 0.009099966 -0.021751326 -0.05869707 0.0002187092 -0.07403607
0.1017751 0.108878516 0.1011361 0.12823719 0.08647355 0.124431506 -0.00089846447 -0.009700263
0.12295121 0.0863576 -0.063967526 0.06409324 -0.012788138 0.09518826 0.13239688 0.069487676
-0.009048157 0.10838429 0.16980736 -0.10514752 -0.08985955 -0.061261155 0.12317859 -0.018500123
-0.051818725 0.024567973 -0.013856852 -0.019825881 0.13831377 0.046962056 0.10453428 -0.03467522
0.03606691 -0.026996924 -0.10843247 0.10383309 -0.08418957 -0.026412172 -0.05490425 0.03143313
-0.10718863 0.029407669 -0.07861758 0.081915334 -0.052062962 0.09234142 0.011599363 -0.12156468
-0.008262223 -0.13647178 -0.09816664 0.08188579 -0.05956186 0.044650108 0.07830865 0.067412294
0.018843107 0.10139762 0.065470904 0.076900266 -0.057479084 -0.0029365814 -0.13438241 -0.10946921
0.042844754 0.11480012 -0.0053511737 -0.09514295 0.13398196 -0.10387549 -0.15641314 0.08558239
0.0035479069 -0.022452736 0.039134476 -0.04987334 0.004314218 0.122204565 0.072198145 0.13809915
-0.00685345 0.041023627 -0.14016378 -0.124537356 -0.014170554 -0.044470586 0.055856343 -0.058969267
-0.07821634 -0.009628001 -0.115316726 0.039396603 0.04310736 -0.015151495 0.13578148 0.011441185
-0.014321414 0.02699459 -0.011234525 -0.08094698 0.11229887 -0.07490884 0.040764324 0.04608283
-0.050750364 -0.030111102 -0.061784793 -0.060745597 -0.054284114 0.025718665 -0.060984705 0.108667344
0.16120079 0.122377776 -0.105848156 0.14660275 0.017118094 0.15211447 0.03144249 0.004923934
0.0028886523 0.022379717 0.18103743 0.024002193 -0.04089976 0.10776935 0.038188044 0.03698273
-0.01248333 0.13871595 0.121494785 -0.007926224 -0.014960162 -0.018017545 0.09188691 0.12792431
0.029704267 0.06956544 -0.038889218 -0.082028165 0.06314375 -0.035637252 -0.07284946 -0.058918245
0.0017814181 0.0025741416 0.051769286 -0.036984153 0.06964291 0.08282798 0.02390946 0.024834825
0.03198373 0.06795244 -0.0010474764 0.14813094 0.068754666 -0.021845067 0.064619705 -0.024568545
0.091266215 0.08899298 0.13091816 0.12399777 -0.09167558 0.13797517 -0.024094809 0.012717359

lstm1.bias_hh_l0 f4 [256]
00000000: 45ef 54bb 05c1 d83c 1e2a a03d 518e 0cbc
00000010: 44b0 e13c ae8c 933c 851a e23d 86ce 3fbb
00000020: be4b 8cbd 3de6 abbd 7cea 19bd 245c 683c
00000030: e54e 2f3d b17d 94bc 03c0 143e 5d9d e93d
00000040: 820e f53d 8746 233e 84ef 123d a775 403d
00000050: 60cc 3a3d 6cc1 9f3d 3d08 5ebb c89b f2bd
00000060: 1146 3f3d f690 dd3c 23ee 283d 5a3c 193d
00000070: 52ca 3e3d c872 113d a10c 8a3c e0cd a2bd
00000080: 3727 9abc f67c c53d 7a9c 1b3d 7a0d 14bd
00000090: 4ac7 4eba d3f2 1d3d f0fa 8ebd b231 ed3a
000000a0: 0073 173e c0c5 433c 9047 083d 4307 d33c
000000b0: e4d6 303d 59d0 61bd 9bf8 283d dfc1 25bd
000000c0: cfbf 05be ec7d 403e ee64 ce3d 6ab8 9a3d
000000d0: a6eb 5dbc 2188 323c 7de2 063e 8857 103c
000000e0: 7230 a93b 8ee0 22bd 9929 f13c 263b d63d
000000f0: 1dd1 1a3e 7c55 1b3e 7068 c83c 6058 97bd
00000100: 4185 9cbd 7f0a 93bd c395 2c3e ac17 8abd
00000110: 2542 afbd 8026 03bd 9c01 fcbd 81d9 4a3d
00000120: a4ed 06bb 690e ad3c 9bd3 283d f6ea 05bd
00000130: 53ed e6bc b6f4 cc3d dcb6 0b3e f937 b2bd
00000140: 711d af3d 1b3d 0fbc 658c 023d b01c 183a
00000150: eeec d63d 6575 2fbb 64b3 f03d 615c ad3d
00000160: 89f6 2abd 74e2 033d 775b a23d 2b1e adbc
00000170: 16a9 eb3d f441 373d b281 fb3d 83e6 bebc
00000180: 2b0b 62bb 9bc4 9cbc 62ca 883d 87f4 adbd
00000190: 8137 753d d7f5 163e 8797 a83c 0e76 de3c
000001a0: b0fc 7e3d 7bc3 f03d 951c fd3d a27a 59bd
000001b0: ac4b 8d3d e4d9 78bc 2173 ccbc b9b0 123d
000001c0: bd42 aabd 5d83 5abd b979 56bd c948 93bd
000001d0: 21a2 8dbd 8aa9 1d3e bab3 da3d a9fa d53c
000001e0: 69d4 923c fc9b 5dbd c459 bbbd faca 083d
000001f0: f994 5fbd 5590 3a3d c0d2 ca3d 99a2 52bd
00000200: d8ad 3bbb 35e6 b53d 2f13 b03d de06 b4bd
00000210: 256c 463d 244a d7bd f0ab bb3d af62 0f3d
00000220: f358 a3bd 2327 113d 0050 ff3d 9171 823d
00000230: 1c7a afbd d96a 013d 67e1 1f3d 636d 053d
00000240: 6f19 3e3d 07fb 1e3d e3d3 913d f15d 14bd
00000250: acef 61bd 23e6 a83d dc31 21bd 7015 c5bc
00000260: 4b81 91bd f5a6 62bd 5f2f 6abb ee66 3fbd
00000270: fd23 5cbd b8ef ab3d 6f34 29bb e133 1fbe
00000280: 051c 93bd 001d 5fbd 486c 0bbc b48c e8bd
00000290: fe18 893c d66c 38bd 1152 1abe 1915 c83c
000002a0: 69b6 b7bd 22e4 c23c a0dc efbd bcf5 d5bb
000002b0: 2067 0e3c b6bd f93d e2ca 54bd ebcf a8bc
000002c0: 9270 2e3d 5566 983d 0f3c e8bd 000f 1b3e
000002d0: 0ddc 2cbe b82b 843d 105c 5f3d 13fd 123e
000002e0: b8be be3c aeba 983d cba6 60ba 6a71 883b
000002f0: 69aa 9abd 5606 31be 0b5e d4bc 7091 ff3d
00000300: ba88 86bc 430e 00bc 4fbd 1d3e 1bb4 51bc
00000310: a58a 2f3e 8e43 28bd 37ed 05bd b86f b33d
00000320: c238 eb3d be29 c4bd 9dea 803d 618f 70bd
00000330: 89f5 5cbd 3739 3c3e e749 813b 7650 1dbd
00000340: e40f 38bd 6740 3b3d 709a 97bc 6d9e a8ba
00000350: ef0b ab3d 3327 333d 9f61 0bbc 4bcb 3bbd
00000360: f4d1 413c 3fbb 8ebd e60b 6cbd d45d 04bd
00000370: a481 163e ed3a 9fbd 80ef 183d b454 073c
00000380: 61b5 e2bc b8e3 ddbb bd71 d83d 2dbe 84bd
00000390: 3810 72bc 802b 34bd 038b 203d b24a 77bd
000003a0: cf78 903c b092 cc3d ed3a 3e3d f66f 62bd
000003b0: 4f34 d53d 4f56 83bc 9b9c adbd 0afb ca3d
000003c0: 3225 233e dd6e f83d 6581 923d d322 a23b
000003d0: 882c 2e3e 86a3 183d de96 5ebd bf5c fc3d
000003e0: fdb9 3c3c 6b2b 243e 0386 8c3d 7c51 ae3d
000003f0: 1c64 93bc 0305 0b3e 3228 ad3d f46c 913d
-0.0032491249 0.026459226 0.07820533 -0.008578853 0.02754987 0.018011417 0.110402144 -0.0029267385
-0.06850384 -0.08393524 -0.037577137 0.014182124 0.04279985 -0.01812634 0.14526372 0.11406968
0.11965658 0.15944873 0.03587295 0.046987202 0.045605063 0.07800564 -0.0033879422 -0.11846119
0.04669768 0.027046662 0.04124273 0.03741107 0.046579666 0.035509855 0.016851725 -0.07949424
-0.018817527 0.09642975 0.037991025 -0.036145665 -0.0007887973 0.038561653 -0.06981456 0.0018096475
0.14789963 0.011949003 0.033271372 0.025760299 0.043173686 -0.055130336 0.041252714 -0.040468093
-0.1306145 0.18798035 0.100778446 0.075547054 -0.0135449525 0.0108967135 0.13172336 0.008809932
0.005163246 -0.039764933 0.02943878 0.104605004 0.15118833 0.15169328 0.024463862 -0.07389903
-0.07642604 -0.07179736 0.16854005 -0.06742796 -0.08557538 -0.03201914 -0.123049945 0.049523834
-0.0020588422 0.021125035 0.041217428 -0.03269478 -0.028189337 0.100076124 0.13643974 -0.08702082
0.085505374 -0.008742596 0.031872172 0.00058026146 0.104944095 -0.0026772853 0.11752966 0.084648855
-0.04173902 0.032198384 0.07927602 -0.02113255 0.1150686 0.044740632 0.12280597 -0.023303276
-0.003449152 -0.019136718 0.066792265 -0.084939055 0.059867386 0.14742218 0.020580066 0.027155902
0.0622527 0.11756035 0.12358967 -0.053095467 0.06899199 -0.015188668 -0.024957241 0.035813067
-0.083135106 -0.053347934 -0.052362178 -0.07191617 -0.06915689 0.15396705 0.10678811 0.0261205
0.01792355 -0.054103836 -0.09147981 0.0333967 -0.05458543 0.045547802 0.099034786 -0.051424596
-0.0028637554 0.08881799 0.08597409 -0.08790372 0.04844298 -0.10512188 0.09163654 0.03500622
-0.0797595 0.035437714 0.12466431 0.06369317 -0.085682124 0.03159604 0.03903332 0.032575022
0.046410974 0.038813617 0.07120492 -0.036222402 -0.05516021 0.0824702 -0.03935419 -0.024058074
-0.07104739 -0.055335004 -0.0035733802 -0.04672902 -0.05374526 0.08395332 -0.0025818606 -0.15547134
-0.07183079 -0.054471016 -0.008509703 -0.11354962 0.01673555 -0.04502567 -0.15070368 0.024424123
-0.08970339 0.023790423 -0.11712003 -0.006529538 0.008691579 0.121943876 -0.051951297 -0.020606956
0.042587824 0.07441393 -0.1133958 0.15142441 -0.16880818 0.06453651 0.054531157 0.14354353
0.023284301 0.07457481 -0.0008569776 0.0041639106 -0.075520344 -0.17287573 -0.02592375 0.12478912
-0.016422618 -0.0078159 0.15404247 -0.012799288 0.17142732 -0.04108005 -0.03269693 0.08761543
0.11485435 -0.09578274 0.06294749 -0.058730487 -0.053945098 0.183812 0.0039455774 -0.03840681
-0.04493703 0.045715716 -0.018506259 -0.0012864597 0.083518855 0.043738555 -0.008507161 -0.045848172
0.011829842 -0.06969308 -0.057628535 -0.032316044 0.14697891 -0.07774911 0.03733778 0.008259941
-0.027674379 -0.006771531 0.10568569 -0.06481586 -0.014774375 -0.043986797 0.039195072 -0.06037397
0.017635731 0.09988916 0.046442915 -0.055282556 0.10410368 -0.016032366 -0.08477136 0.09911163
0.15932158 0.121305205 0.07153586 0.004947999 0.17009175 0.037265323 -0.054343097 0.123223774
0.011518952 0.16032188 0.06861498 0.08511636 -0.017992072 0.1357613 0.08454932 0.07100859

lstm2.weight_ih_l0 f4 [128, 64]
00000000: 801b 5ebd cafb 233d 085b c73d 3918 abbd
00000010: 6351 f2bd 2065 06be 6a28 91bd 1710 093d
00000020: 0fc3 aebd d357 023e fc44 a83d 2d1f 52be
00000030: 38c9 a9bc b6d9 31be 8917 693d ac2c 1eba
00000040: d9f5 10be 3c99 513e 2531 00bc 5948 a33c
00000050: 5f8a f43d a63b 23bd 5a5d 143a eb32 febd
00000060: e77d 3fbd 189f 923c 803f c3bd b0b4 37be
00000070: d311 06be 2387 04be 0ee8 463d 8cfb eebd
00000080: e996 463e d4fc 9b3d e07c 8d3d e8cd 68bd
00000090: 48ba 293e 6004 03be f1c6 42bc 972c 343e
000000a0: 77ff 47be cbdf f63d b3ad bbbd 17d6 9a3c
000000b0: 2b38 05be 60c2 d53d a7f6 173e 38e1 6c3d
000000c0: 2149 26be 9044 c93d 026b 2abe bc11 b23d
000000d0: b4f1 db3c 2905 a2bc ca7a cabb 4b38 283e
000000e0: dfdc d33d 7982 033e 38d9 2dbd a4a6 043d
000000f0: 02d5 ee3c b3e0 833d 9354 8cbd a4f1 963c
00000100: 0de5 acbd 41c1 b7bd 1c70 02be f76a 0a3e
00000110: 041e cb3d e32d 34bc 0cdb c53d d750 e9bd
00000120: 082f 9fbd 1925 05be 75eb bd3d 689c edbd
00000130: 0ba3 eabd e16d 0bbe 17af 1f3d 888f 1abc
00000140: 5a52 24be b472 3f3d 6adf a2bc 2f62 80bd
00000150: fb99 fdbd 7f08 0f3e 8843 bebd 6001 cdbc
00000160: 84f9 883c be3b 673d 4d2b 45be 4a38 553d
00000170: 8c3f 3b3e cb3a c6bc 171c cebd e5bd cbbd
00000180: 1faa acbd 0395 00be a039 a5bb 6fb5 803d
00000190: e103 fbbd bf91 90bc c414 813d d20d 413e
000001a0: e217 763d 7245 28be 8b2a be3d f4b3 e2bd
000001b0: 05fd 973d ac1c b9bd 04b0 bdbd cffe 3e3d
000001c0: a1db 7abd 68a3 72bd 93d8 1f3e 7cbb 293e
000001d0: 1555 a1bb e044 50bd 9dae 433e e4ab 3bbd
000001e0: 7df1 5bbd caa3 263e 4dea 8bbb 1c30 c93d
000001f0: e80b e3bc 7161 ddbd 545b ac3d bd48 8abd
00000200: 0be7 df3c c317 8fbc 0a25 183a c3f6 5ebd
00000210: 564f 1abc 6684 753d 36ed a9bd 73de 4abe
00000220: c49d 633d 7198 03be b0d1 50bd a59d 023e
00000230: acab 0e3e d2db 06be 882d 0f3d 208a acbd
00000240: b321 b93d 8455 903d d250 34be 1b05 2fbc
00000250: 5929 34bd 0796 8c3d 91d9 38be 9ece f4bd
00000260: 543f 083b 6dce 22be b327 0d3d 10f3 903d
00000270: d11e 72bd 73cf 0c3a d68f eebd 185a 6b3d
00000280: 50e5 5a3d c7a6 953b 1083 f83d 826e 22be
00000290: bdce f2bd 7cb4 d9bd cbc2 b7bd b2bb c6bd
000002a0: 8b05 153e 8d56 2abd b1d8 b63d 222c 11be
000002b0: 2b71 573d 9596 6dbd 7b17 10be 383a bdbd
000002c0: d6c1 d3bd 31fe 1e3d e09b 0fbe 7c9e ee3d
000002d0: 8eb1 2dbe eada adbd 7acc 52bb 958e 383d
000002e0: af4d b53d ea0d 213e 1b2a ab3d 3ea9 393c
000002f0: c281 c2bd b3bc 48be 904c 55be 2fda 76bd
00000300: 8751 e6bc 566a e539 bc96 163e daf6 093d
00000310: 58f6 11bd 363f 133e 5d11 96bd 5fdd 033e
00000320: f2e3 fa3c 9d15 9fbc 9b1d ca3d 23e8 123d
00000330: f847 f4bd bf86 c73d a8fd 2e3d 24a5 0a3d
00000340: 45f1 1dbe 1369 cbbd e77d ecbd 0672 7dbd
00000350: c0dd 11be 4436 6f3e 3093 5dbe 7cd1 103d
00000360: 5145 05be a08c 263e c400 cd3d fa76 37be
00000370: 77d8 f43d 7c87 b2bc 2d49 a0bd f082 85bd
00000380: 6927 30bd e25a 533b d1e0 c0bd d07b 1c3e
00000390: 005f 473e ebb8 ab3d f19f 57be d744 243e
000003a0: 6230 bc3d 3962 243d bc56 643d 293e 1dbe
000003b0: 0d15 093e 0711 1ebc ce0d 143d 65ba 02bc
000003c0: fcef fdbd 2a0b 043e 16c6 89bb 3bd7 91bc
000003d0: 5987 fcbd 672c bebd 7d00 353e fb03 733e
000003e0: 718e 1dbe 77c0 9b3d 6c6b 98bd 8053 b6bd
000003f0: 9849 59bd fede 4bbe 0597 c83b 72f5 fd3d
-0.054225445 0.040035047 0.0973416 -0.083542295 -0.118319295 -0.13124514 -0.070877865 0.03346261
-0.08533298 0.12728815 0.08216283 -0.20519705 -0.020725831 -0.17368206 0.05690721 -0.00060338783
-0.14156283 0.2046861 -0.007824217 0.019931959 0.11940455 -0.039851807 0.00056596624 -0.124120556
-0.04675093 0.017898127 -0.09533596 -0.1794002 -0.13092737 -0.12942176 0.04856115 -0.116690725
0.19393505 0.076165825 0.06908584 -0.056836993 0.16574967 -0.12794638 -0.011888252 0.17595135
-0.19531046 0.12054404 -0.0916399 0.018900914 -0.13009708 0.10437465 0.14840184 0.057831973
-0.16238834 0.098275304 -0.16642383 0.08694789 0.026848651 -0.019777851 -0.0061791884 0.16427724
0.10344862 0.1284274 -0.042443484 0.032385483 0.029154304 0.06439342 -0.06852069 0.01842577
-0.084421255 -0.08972407 -0.12738079 0.13517366 0.099178344 -0.010997268 0.096609205 -0.11392372
-0.077726424 -0.13002433 0.092734255 -0.11602098 -0.11456879 -0.13616134 0.038985338 -0.009433635
-0.1604704 0.04674025 -0.019881923 -0.06268727 -0.12382885 0.13968085 -0.09290224 -0.02502507
0.01672054 0.05645346 -0.19254799 0.052055635 0.1828596 -0.024197957 -0.100639515 -0.09948329
-0.084308855 -0.12556843 -0.00504227 0.06284606 -0.12256599 -0.017647622 0.06302789 0.18852928
0.06008137 -0.16432741 0.09285458 -0.110694796 0.074213065 -0.09038672 -0.09262088 0.046629723
-0.06124461 -0.059237868 0.1560996 0.16575426 -0.0049234726 -0.050846934 0.19109578 -0.045818225
-0.053697098 0.16273418 -0.004269874 0.09823629 -0.027715638 -0.10809601 0.08415857 -0.06752155
0.02733185 -0.017467385 0.0005803859 -0.05443455 -0.009418329 0.059940718 -0.082971975 -0.1981142
0.05557038 -0.1285112 -0.050981224 0.12755449 0.13932675 -0.13169792 0.03495553 -0.08424783
0.09039631 0.07047561 -0.17608956 -0.01068237 -0.043984745 0.06864553 -0.18051745 -0.119534716
0.00207897 -0.15899058 0.03446169 0.070776105 -0.05911142 0.00053714885 -0.11648528 0.057458967
0.053441346 0.0045670005 0.12134373 -0.15862468 -0.118558384 -0.10630128 -0.08972701 -0.09703769
0.14552896 -0.041586448 0.08928049 -0.14176992 0.05259816 -0.058004934 -0.14071457 -0.0923962
-0.10339706 0.038816635 -0.14024305 0.11651322 -0.16962263 -0.0848902 -0.0032165335 0.04505785
0.088527076 0.15727964 0.0835764 0.011331854 -0.094974056 -0.19603233 -0.20829988 -0.06026667
-0.028115047 0.0004375751 0.14705938 0.03368268 -0.035635322 0.14379582 -0.073275305 0.12877415
0.03062627 -0.019419486 0.09868928 0.035865914 -0.119277894 0.09742498 0.042722374 0.033848897
-0.15424068 -0.09932151 -0.115474515 -0.06187632 -0.14244747 0.23360544 -0.21638179 0.03535603
-0.13014723 0.16264582 0.10009912 -0.1791648 0.1195535 -0.02179312 -0.07826457 -0.06519115
-0.043006334 0.0032250215 -0.0941788 0.15281606 0.19469833 0.0838488 -0.21057107 0.16041885
0.09188916 0.040132735 0.05574678 -0.15355743 0.13386936 -0.009647614 0.036145978 -0.00797901
-0.12399289 0.12894884 -0.004204522 -0.017802825 -0.12330503 -0.09285813 0.17675968 0.23731987
-0.15386368 0.07605069 -0.07442364 -0.08902645 -0.0530487 -0.19909284 0.0061215186 0.124003306

lstm2.weight_hh_l0 f4 [128, 32]
00000000: 5dd8 a23d 6380 a73c 3d89 2bbe 559f 433e
00000010: 986f fb3d 0f70 43be f666 093e be10 b53d
00000020: 4b3e 9d3d de49 303d 55a2 24be a414 4dbc
00000030: ea93 0c3e d2b1 afbc 8494 5c3d 4c8a a43a
00000040: ed18 f0bd 57b3 05be 7264 4d3d 7395 eabd
00000050: 60f6 d2bd f162 9fbc e84a 4ebe 3e9e 973d
00000060: bb68 a13d 22c8 b0bd 5f91 29be 9934 b8bd
00000070: a2ea 503d c12e 4f3d bf6d c93d 9b89 1d3e
00000080: 9390 533e 4d45 f2bd 62a8 02bd ed87 f6bd
00000090: 6402 173d 713b e5bd 8784 203e c715 bb3d
000000a0: fc38 8bbd 6e86 323d 0a50 14be c190 0ebd
000000b0: 8617 6dbd 6e02 28bd 06d7 d03d 7ca0 f43d
000000c0: 7630 1c3e 5411 0ebe 7d4e bc3d c8d5 46be
000000d0: b26e 7e3d 8e50 d8bd 2e54 0a3e d8ed ee3d
000000e0: e2c1 1ebe 1f39 4c3e 26f7 03be 2d84 d93d
000000f0: 6ddf c0bc 9419 393d 7ede 903d ef5a 353e
00000100: a646 ec3c 3add cebd 041b f2bd cef1 b6bc
00000110: 4548 3cbe f2b5 84bd b597 aebd 9697 0abe
00000120: 95d2 83bd 1fbb d33c 1f4e 6ebd 5349 95bc
00000130: adc0 873d c02b 7dbd 9325 ec3d 758c 66bd
00000140: 5eda 9ebd 34b8 02be c1ae 613d bffe 41be
00000150: 6a88 48be 0e64 c33d f7a7 c9bd 0015 4cbe
00000160: 1d77 823d 9ee2 f03d 18ec edbd 0a90 27be
00000170: 74f6 f53c 4e9f 783d 5533 43be dc2d dfbc
00000180: c728 103e 463a ecbc 60c0 643d 8dfa 333e
00000190: 8d57 febd 6bfb 71be 6230 393e d892 bfbb
000001a0: a4a0 ee3d 8664 f6bc 6fa1 a03d 8797 19bc
000001b0: f568 b03d d8e1 f6bc c691 653c e111 0cbe
000001c0: 94bb cd3d 9a1a d9bd 1c33 19be e9bb 26bd
000001d0: 8cd5 4f3d 3aa4 5e3d f05b 73bd 594a cfbb
000001e0: 3603 c63d 7466 853c a8c0 01be 477b a23d
000001f0: 411a 22bd b143 f4bd 08b6 15bd 63d0 d6bd
00000200: 7259 ad3c 724e c3bd 1e8e 13be b9d7 f03d
00000210: 5e48 48be 5605 c3bd 9bb4 203e e85a 0cbe
00000220: b875 0e3e 2f86 a4bc 3b97 c53c 0877 ed3b
00000230: cf19 8cbd c364 b83d de83 df3c 8991 eabd
00000240: c9a1 99bd fee0 c93d 8fc0 65be 68b8 92bd
00000250: ec7e a53d 963b 8d3d c4a6 13be 9c0f 52be
00000260: 451f 8a3d f00d a63d 7660 66be a8c7 48bc
00000270: cf7c 2bbd 6a19 6dbe da3f 3cbe b60f c43d
00000280: b61e 153e a885 4ebd 2709 abbd 54d1 02bc
00000290: b12b f2bd 3568 ecbd 22a2 8cbd 39af 8a3c
000002a0: 00ef c83d 5119 28be e9d5 85b9 46c6 283e
000002b0: 7816 a43d 685a b63d 63f0 1e3e e347 523d
000002c0: e535 923d b990 94bd 68a9 1fbe a323 fc3d
000002d0: d398 163c 3854 e33d c0f6 2abe 2b87 cd3d
000002e0: 162b fa3d efd2 553e 4707 773c 2879 66bd
000002f0: c9ec 0dbe 4e65 c93d 8264 afbd 0198 463e
00000300: f7e2 663d 2e86 b93d a195 0a3b 0f95 fd3d
00000310: 8d71 23be fe1b dd3d 48e2 583e 768d b4bd
00000320: 5eaa 433b bfe8 e9bd 6623 b9bd 65b8 f13d
00000330: cc53 f93b a895 8b3d 4b4c b3bd c57d bb3c
00000340: beb7 d3bd 76af 9a3d 477f 69be 3247 273d
00000350: e608 d0bd b926 973d f9b6 02be 86a1 4bbe
00000360: ec18 4dbe 2669 e1bd 4b20 023e 96f7 41be
00000370: 4adb 683d 786a 753d 9c56 07be 54d3 1c3d
00000380: 17c5 ca3d 21e4 903d 7e8c 1dbd db89 96bd
00000390: 5dc4 3dbe 17da eabd 8917 4abc dccb 983d
000003a0: 0c8a e9bd 98f9 aabd e34b a13c 872b 7e3c
000003b0: 1d15 8dbd 8f4a afbd 3369 49bd 3785 05be
000003c0: 7bcf c83b da56 47be 5445 8dbc 5360 b9bb
000003d0: fd1f b73c 675c e4bd 3b81 4a3d 9e67 36bd
000003e0: 9abc dabd 903d 053e 93c6 13bd f60f 70bd
000003f0: 6aba f33b 6228 2fbe 4eff b9bb 07fa 68bd
0.07951424 0.020446962 -0.16751571 0.19103749 0.12277144 -0.19085716 0.13418183 0.08841084
0.07677897 0.043039195 -0.1607755 -0.012517128 0.137283 -0.021447096 0.053852573 0.0012553423
-0.11723504 -0.13056694 0.05014462 -0.114542864 -0.103008986 -0.019456359 -0.20145762 0.07403229
0.07881304 -0.08631922 -0.16559361 -0.08994407 0.051005013 0.050581697 0.098353855 0.15384524
0.2066062 -0.11829624 -0.031898864 -0.120376445 0.036867514 -0.11192978 0.15675555 0.09135013
-0.06797978 0.043585233 -0.14483657 -0.034806017 -0.05788376 -0.041017942 0.101972625 0.119446725
0.15252861 -0.13873798 0.09194658 -0.19417489 0.062117286 -0.105622396 0.13508675 0.11666459
-0.15503648 0.19943665 -0.12887248 0.10620914 -0.023544038 0.04519041 0.07073687 0.1771047
0.028842282 -0.10100789 -0.11821559 -0.022332098 -0.18386944 -0.06480016 -0.085250296 -0.13534388
-0.0643665 0.025846062 -0.05817997 -0.01822344 0.06628547 -0.0618093 0.11530604 -0.056286294
-0.07756494 -0.1276558 0.0550983 -0.18944834 -0.19583288 0.09540568 -0.0984649 -0.19929886
0.06370375 0.11761974 -0.11617297 -0.1636354 0.030024745 0.0606988 -0.1906255 -0.027243547
0.14078055 -0.02883638 0.055847526 0.17576046 -0.12419043 -0.23631065 0.18084863 -0.0058463626
0.116517335 -0.03007723 0.07843291 -0.009374506 0.08613769 -0.030136988 0.014011806 -0.13678695
0.10045543 -0.10600777 -0.14960903 -0.04070655 0.050740764 0.054355837 -0.05941385 -0.0063260016
0.09668581 0.016284205 -0.12671149 0.079336695 -0.03957582 -0.119269736 -0.03655055 -0.10488965
0.021160815 -0.09536447 -0.14409682 0.11759896 -0.19558856 -0.09522502 0.15693896 -0.13706553
0.13912094 -0.020083515 0.024119964 0.0072468556 -0.0684086 0.09003594 0.027284559 -0.1145354
-0.07501561 0.09857367 -0.22436737 -0.07164079 0.08080849 0.06896131 -0.14419085 -0.20513767
0.067442454 0.08108127 -0.22497734 -0.012254633 -0.041867074 -0.23154226 -0.18383732 0.09573309
0.14562497 -0.050420433 -0.08351355 -0.007984478 -0.1182474 -0.115433134 -0.06866862 0.016929256
0.09811211 -0.16415907 -0.00025527112 0.16481885 0.08012098 0.089039624 0.15521388 0.051338088
0.07139186 -0.07254166 -0.15591967 0.12311485 0.00919171 0.11100048 -0.1669569 0.10035547
0.12215249 0.20881246 0.015077419 -0.056267887 -0.13859858 0.098337755 -0.08564092 0.19393922
0.056368794 0.09058796 0.0021146315 0.12381946 -0.15961285 0.10796355 0.2118007 -0.08816044
0.0029856185 -0.11421346 -0.09039955 0.118027486 0.0076088663 0.06815654 -0.08754786 0.02288712
-0.103377804 0.07552998 -0.22802459 0.04083938 -0.10157947 0.07380433 -0.12765111 -0.19885835
-0.20029038 -0.110063836 0.12707631 -0.18942103 0.056849755 0.05991599 -0.13216633 0.038287476
0.09900873 0.07074762 -0.038464062 -0.073505126 -0.18531938 -0.114673786 -0.012334713 0.07460758
-0.114032835 -0.083483875 0.019689506 0.015513307 -0.06888793 -0.08559143 -0.04917259 -0.13039099
0.006128249 -0.19466725 -0.017244972 -0.0056572347 0.02235412 -0.11150437 0.04943965 -0.04453241
-0.10680504 0.13011765 -0.036078047 -0.05860897 0.007437994 -0.17105249 -0.0056761866 -0.05687907

lstm2.bias_ih_l0 f4 [128]
00000000: 32c0 3b3e a41b 3c3e 3a20 ffbc b230 cdbd
00000010: b169 003d bce1 0c3e 03e7 bcbd 6d51 1d3d
00000020: 28de 0abe e9c9 e63d 9afd 5f3e 69f2 553e
00000030: b2e4 fe3d 4977 27bd 9aac 22bd 8ba1 db3a
00000040: 5548 63bd fc1c 39bb 95e5 013d 3e60 e6bb
00000050: 1883 abbd 5c68 03be bba7 c13d ff87 7cba
00000060: 1b26 f2bd e5ef 003e 8c76 e33d 0f35 4b3d
00000070: ebf5 b73c 00ed e23d 4850 83bc 6552 363d
00000080: 2153 51bd 7e24 d03d e4df 9cbd 5565 bc3d
00000090: fbf2 ce3c bead 033e 33ad e73d aa3e a6bc
000000a0: 15f3 233e 1ce8 27be 5160 ed3d 49db dcbd
000000b0: f0f4 e8bc 04c9 f43d e2db 13bd 3e6e 0f3e
000000c0: da6a debd 6703 ba3c 8e93 29bc 0c98 3a3e
000000d0: b136 103e 075d 183e 8a0a 023e d63f 94bd
000000e0: 2b9d 743d fcdc 133e b400 423e 7fa4 fb3d
000000f0: aba3 823d 79bb 1e3e 0188 cebc 1a48 df3d
00000100: 0ed5 4e3c 21a0 43be 4008 f3bd 4344 af3a
00000110: 523b 013d dee1 18be 69b6 b9bd 01f1 34be
00000120: 2d16 d6bc 81be 423d 6f31 d8bd 3845 323e
00000130: c12c 033e 6f7d da3b 0c65 213e f1d7 2a3d
00000140: d694 a1bd 805f 043e 3bc3 edbd 12d2 0dbe
00000150: 19a5 0cbe 7c32 02bd 8e39 38be 411b b03d
00000160: 9920 d7bd 73a8 283e 1eef 5abd f39c e93c
00000170: 78e1 f2bd c196 c53d 7530 6b3d 1213 563c
00000180: c5fa 443e 6331 f33d 4df6 29bd ca51 483e
00000190: 4aa1 c13d 8144 bc3d c8aa 793d 781d a93d
000001a0: 1f73 163e d7df f4bc a250 0f3e a17d ff3d
000001b0: 383e 7a3d e544 6e3e e3be 523e ba7b 1d3d
000001c0: dc54 123d 17a1 8a3d d0c6 69bd b691 6d3e
000001d0: f6ab c73d 89cf 283e 94d2 3f3e 9cc6 c43d
000001e0: 3640 e03c a81e 6dbb 79ad 463d bd14 5e3d
000001f0: a57e 1d3e de3f 73bd f73b 983c 2d2a 2d3e
0.18335035 0.18369919 -0.031143297 -0.100190535 0.031350795 0.13757986 -0.092237495 0.03840773
-0.13561308 0.1126898 0.21874085 0.20893253 0.12445964 -0.040885244 -0.039715387 0.0016756518
-0.055488903 -0.0028246036 0.031713087 -0.007030516 -0.083746135 -0.12832779 0.0945582 -0.0009633302
-0.11823674 0.12591513 0.111065954 0.049611147 0.02245613 0.110803604 -0.016029492 0.04451217
-0.05110467 0.1016321 -0.07659891 0.09199015 0.025262346 0.12859246 0.11312332 -0.020293552
0.16010697 -0.16397136 0.115906365 -0.10784013 -0.028437108 0.11952403 -0.03609837 0.14006898
-0.10860224 0.0227067 -0.010350121 0.18222064 0.14083363 0.14879237 0.12699333 -0.07238738
0.0597202 0.14439768 0.1894558 0.122872345 0.063788734 0.15501203 -0.025211336 0.10902424
0.012624038 -0.19104053 -0.11866808 0.0013371784 0.031550713 -0.14929911 -0.09067995 -0.1767006
-0.026133621 0.04754496 -0.10556304 0.17409217 0.12810041 0.006667785 0.15761203 0.041709844
-0.07889716 0.12927055 -0.11609503 -0.13849667 -0.13734855 -0.031786427 -0.17990705 0.08598948
-0.105042644 0.16470508 -0.053450696 0.028517222 -0.11859411 0.09647895 0.05741926 0.01306607
0.19236286 0.11874654 -0.041494656 0.1956245 0.094545916 0.091927536 0.060953885 0.08257574
0.14692353 -0.029891891 0.13995603 0.12475134 0.061094493 0.23268469 0.2058063 0.038448073
0.03572546 0.06769007 -0.057074368 0.23200116 0.09749596 0.16485418 0.18732673 0.09608194
0.027374368 -0.0036181603 0.04850528 0.054218996 0.15380342 -0.05938708 0.018583281 0.1691062

lstm2.bias_hh_l0 f4 [128]
00000000: 8f26 a4bd 33aa edbd 2602 9bbd 5c0b 45bb
00000010: 253d ef3d a2bf 1c3e 363a 65bd 2a71 5c3e
00000020: c4b3 00be 50c1 0ebe d6f3 cebd e9b5 e7bb
00000030: 4505 4d3c d6c5 25ba 86dd 02be 22ff fcba
00000040: a638 473e b2e9 213e 4bd4 e7bd cd6c 223e
00000050: bb89 0a3e 258e 303d f03f 9cbd 9f34 b93c
00000060: d2b3 5f3e c61f 82bd fc36 10bd e8b8 f3bd
00000070: 5437 9fbc 5917 913d cc93 193e dd78 413e
00000080: 5110 483e 70aa 463d 01c3 113e 4087 1f3e
00000090: 4998 183d 2b48 9cbd cf05 e33d 3f9a b53d
000000a0: 701a 0f3e 94b5 df3d 71af 0e3e df00 0f3e
000000b0: a1fc 293e dc42 e63d 6d8f 483e b513 fb3d
000000c0: 5172 9d3d c709 2b3e 455a 8eba 012a 94bd
000000d0: 43b3 0a3e c5cc c0bd f994 803b 06a5 01be
000000e0: a7b5 50bc 0f4c ffbc e041 4c3e 3e3f dabd
000000f0: e57a cbbd 9ec3 8d3d 19f0 453e 0f17 77bc
00000100: e1a4 103e a106 263d 5f92 ea3d 50ec 953d
00000110: 4be4 edbd 8e2b 75bd 7696 d73d 20ad 0ebd
00000120: 1f57 1a3e e4e1 ec3d 9a7c 08be f703 803d
00000130: d4d7 3d3e 54fa e23d 1f83 e53d d0aa cb3d
00000140: 1851 41bd 667d 00be a86a 23be 9b70 a73d
00000150: 9ccd 303d f57b 33bc 5c7f a4bd 22de 1b3e
00000160: 0926 b13d 8090 3ebc 3315 1d3e c91e d53d
00000170: d891 2abd 3127 17be 1bd8 e0bd d0de 1b3e
00000180: edce 1e3e 9971 d2bd 22f4 803e 870e 73bd
00000190: 2769 de3d 990b 12bd 9d3a 663e a6a9 b6bb
000001a0: faba fb3d c6b8 68bc c107 a7bd b0fe 133e
000001b0: b6ab 2bbd 946e 193d 383b 113e 370f 543c
000001c0: 3504 3abd c92c 4f3e 7a57 25ba 428f 47bd
000001d0: 7fbf 773e 18f0 673e 9472 483e e35a 4d3d
000001e0: bd18 853c 9179 2f3e a12d 1d3d df75 43bc
000001f0: 6568 0b3e e67e 933d 826d dcbd 1fb5 db3d
-0.08015167 -0.116047285 -0.07568769 -0.0030066585 0.11681584 0.15307477 -0.055963717 0.21527544
-0.12568575 -0.1394093 -0.10105102 -0.007071246 0.012513463 -0.00063237303 -0.12779817 -0.001930211
0.19455203 0.15811804 -0.113197885 0.15861817 0.13529103 0.04310431 -0.076293826 0.0226081
0.2184594 -0.063537166 -0.035208687 -0.119005024 -0.019435562 0.07084531 0.14997786 0.18893762
0.19537474 0.048502386 0.14234544 0.15578938 0.037254605 -0.076309524 0.11085092 0.08867311
0.13974929 0.10923305 0.13934113 0.13965176 0.16600277 0.11243221 0.19585963 0.12259618
0.0768782 0.16702949 -0.0010860643 -0.07234574 0.13544945 -0.09414057 0.003924009 -0.12660608
-0.012738622 -0.031164197 0.19947004 -0.10656594 -0.0993555 0.06922077 0.19329871 -0.015081181
0.14125396 0.040533666 0.11453699 0.07320464 -0.11615809 -0.05985599 0.10526745 -0.034833074
0.15072297 0.11566523 -0.13328782 0.06250756 0.18539363 0.110829026 0.1120665 0.09944689
-0.047196478 -0.12547836 -0.15958655 0.08175775 0.043164834 -0.010954847 -0.080321044 0.15221456
0.08649833 -0.011631131 0.15340118 0.104062624 -0.041642994 -0.14761044 -0.10978719 0.15221715
0.15508623 -0.10275573 0.2518626 -0.059340026 0.108599 -0.03565559 0.22483297 -0.005574423
0.12291522 -0.01420421 -0.08155776 0.14452624 -0.041911803 0.03745897 0.14182746 0.012943081
-0.04541417 0.20231928 -0.00063072855 -0.048720606 0.24194144 0.22650182 0.19574958 0.050135504
0.016247148 0.17136218 0.038373593 -0.011929958 0.13614042 0.07201938 -0.107630745 0.107279055

fc.weight f4 [2, 32]
00000000: 84ff 233e e0f0 6dbe 870c a4be cf83 0f3e
00000010: 2190 9fbd 9d3d 7dbe b03f b83e 2b85 05be
00000020: 3e26 9e3e 02db f8bd 29dd 46be 58bb ba3e
00000030: 38ef ac3e bba4 a03e cdb5 653e 484a a1be
00000040: b9ba a33e 5262 abbe 1656 44be 997d 83be
00000050: 3660 b0be 3ca4 9ebe aea1 50be 3119 3ebe
00000060: a7dd a6be fe86 7b3e 68cd 5cbe c856 2cbe
00000070: e156 933d f257 5fbd 7db9 8cbe 5314 513e
00000080: 069f aa3e 1da2 aabd 1d6c 9dbd 0819 783e
00000090: 0296 72be 4e80 96be 12af c0bc 8d2d b5be
000000a0: 570c a03d 33e1 b4be b1d3 47be efc9 82bd
000000b0: 8370 823e e44b 743d 8454 853e 2b22 76be
000000c0: bf2e 1e3d e3f9 dfbb 5e30 87be e5dc 9ebe
000000d0: cbaa 19be a6b3 7ebe 5287 8dbe df3c 95be
000000e0: 48c8 9cbe 4b4e 5d3e 6958 ffbc 13c4 88be
000000f0: 607b a03e ffaa bebe a614 86be 60f3 733e
0.1601544 -0.23236418 -0.32040808 0.14015125 -0.07791162 -0.24730535 0.3598609 -0.13039081
0.3088855 -0.121511474 -0.19420303 0.36471057 0.3377626 0.3137568 0.22432633 -0.31501985
0.31978396 -0.3347345 -0.19173464 -0.2568176 -0.34448403 -0.30984676 -0.20374176 -0.18564297
-0.32590982 0.24563214 -0.21562731 -0.1682998 0.07194305 -0.05452723 -0.27485266 0.2041791
0.3332445 -0.08331702 -0.076866366 0.24228299 -0.23690036 -0.29394764 -0.02352098 -0.35386315
0.07814854 -0.35328063 -0.19514348 -0.06386172 0.25476465 0.059642687 0.26041043 -0.24036472
0.0386188 -0.0068352087 -0.2640409 -0.31027904 -0.15006559 -0.24873218 -0.27642304 -0.29148003
-0.30621552 0.21611898 -0.031170087 -0.26712093 0.31344128 -0.37239835 -0.26187629 0.23823309

fc.bias f4 [2]
00000000: 90be c83d 0d7e 28bc
0.09801972 -0.010283959
